…
 has an improperly-formatted table for the different model variants.\r\n\r\nI think the fix should be to add a dividing line between the header and the body of the table.\r\n\r\n```markdown\r\n| ------------- | ------ | ------------ | ------------------- | ---------- | ----------------- |\r\n```\r\n\r\nThe final version would be something like this:\r\n\r\n```markdown\r\n| Model variant | Depths | Hidden sizes | Decoder hidden size | Params (M) | ImageNet-1k Top 1 |\r\n| ------------- | ------ | ------------ | ------------------- | ---------- | ----------------- |\r\n| MiT-b0 | [2, 2, 2, 2] | [32, 64, 160, 256] | 256 | 3.7 | 70.5 |\r\n| MiT-b1 | [2, 2, 2, 2] | [64, 128, 320, 512] | 256 | 14.0 | 78.7 |\r\n| MiT-b2 | [3, 4, 6, 3] | [64, 128, 320, 512] | 768 | 25.4 | 81.6 |\r\n| MiT-b3 | [3, 4, 18, 3] | [64, 128, 320, 512] | 768 | 45.2 | 83.1 |\r\n| MiT-b4 | [3, 8, 27, 3] | [64, 128, 320, 512] | 768 | 62.6 | 83.6 |\r\n| MiT-b5 | [3, 6, 40, 3] | [64, 128, 320, 512] | 768 | 82.0 | 83.8 |\r\n```\r\n\r\nThis should render as:\r\n\r\n| Model variant | Depths | Hidden sizes | Decoder hidden size | Params (M) | ImageNet-1k Top 1 |\r\n| ------------- | ------ | ------------ | ------------------- | ---------- | ----------------- |\r\n| MiT-b0 | [2, 2, 2, 2] | [32, 64, 160, 256] | 256 | 3.7 | 70.5 |\r\n| MiT-b1 | [2, 2, 2, 2] | [64, 128, 320, 512] | 256 | 14.0 | 78.7 |\r\n| MiT-b2 | [3, 4, 6, 3] | [64, 128, 320, 512] | 768 | 25.4 | 81.6 |\r\n| MiT-b3 | [3, 4, 18, 3] | [64, 128, 320, 512] | 768 | 45.2 | 83.1 |\r\n| MiT-b4 | [3, 8, 27, 3] | [64, 128, 320, 512] | 768 | 62.6 | 83.6 |\r\n| MiT-b5 | [3, 6, 40, 3] | [64, 128, 320, 512] | 768 | 82.0 | 83.8 |\r\n\r\n\r\nA slightly nicer-formatted version would be\r\n\r\n```markdown\r\n| Model variant | Depths | Hidden sizes | Decoder hidden size | Params (M) | ImageNet-1k Top 1 |\r\n| :-----------: | ------ | ------------ | :-----------------: | :--------: | :---------------: |\r\n| MiT-b0 | [2, 2, 2, 2] | [32, 64, 160, 256] | 256 | 3.7 | 70.5 |\r\n| MiT-b1 | [2, 2, 2, 2] | [64, 128, 320, 512] | 256 | 14.0 | 78.7 |\r\n| MiT-b2 | [3, 4, 6, 3] | [64, 128, 320, 512] | 768 | 25.4 | 81.6 |\r\n| MiT-b3 | [3, 4, 18, 3] | [64, 128, 320, 512] | 768 | 45.2 | 83.1 |\r\n| MiT-b4 | [3, 8, 27, 3] | [64, 128, 320, 512] | 768 | 62.6 | 83.6 |\r\n| MiT-b5 | [3, 6, 40, 3] | [64, 128, 320, 512] | 768 | 82.0 | 83.8 |\r\n```\r\n\r\nwhich looks like this:\r\n\r\n| Model variant | Depths | Hidden sizes | Decoder hidden size | Params (M) | ImageNet-1k Top 1 |\r\n| :-----------: | ------ | ------------ | :-----------------: | :--------: | :---------------: |\r\n| MiT-b0 | [2, 2, 2, 2] | [32, 64, 160, 256] | 256 | 3.7 | 70.5 |\r\n| MiT-b1 | [2, 2, 2, 2] | [64, 128, 320, 512] | 256 | 14.0 | 78.7 |\r\n| MiT-b2 | [3, 4, 6, 3] | [64, 128, 320, 512] | 768 | 25.4 | 81.6 |\r\n| MiT-b3 | [3, 4, 18, 3] | [64, 128, 320, 512] | 768 | 45.2 | 83.1 |\r\n| MiT-b4 | [3, 8, 27, 3] | [64, 128, 320, 512] | 768 | 62.6 | 83.6 |\r\n| MiT-b5 | [3, 6, 40, 3] | [64, 128, 320, 512] | 768 | 82.0 | 83.8 |\r\n\r\n\r\nI would be happy to submit a PR for this. Let me know.", "state": "CLOSED", "createdAt": "2022-01-25T20:57:49Z", "author": "deppen8"}
{"repo": "huggingface/transformers", "number": 15336, "title": "Perplexity VERY high but generated text coherent", "body": "I have trained GPT2 from scratch on a minority language which I tokenized with BPE. \r\n\r\nWhen I finished traini
…
