…
{"body": "Ah, this also looks like it's breaking the conversion to `torch.fx`. Let's see if @michaelbenayoun can think of an easy solution to that.", "createdAt": "2022-08-05T14:36:29Z", "author": "sgugger", "repo": "huggingface/transformers", "pr_number": 18486}
{"body": "Thanks, I was about to ask.. any thoughts? I am not well-versed in torch's symbolic tracer (or FX generally). I'm happy to do the work if you can point me somewhere useful 😄 ", "createdAt": "2022-08-05T14:55:57Z", "author": "donebydan", "repo": "huggingface/transformers", "pr_number": 18486}
{"body": "Current offending line is line 985 in `src/transformers/utils/fx.py` (`HFTracer.trace()`):\r\n`self.graph = super().trace(root, concrete_args=concrete_args)` \r\n\r\nwhere `root` is \r\n```\r\nPLBartModel(\r\n  (shared): Embedding(99, 16, padding_idx=1)\r\n  (encoder): PLBartEncoder(\r\n    (embed_tokens): Embedding(99, 16, padding_idx=1)\r\n    (embed_positions): PLBartLearnedPositionalEmbedding(102, 16)\r\n    (layers): ModuleList(\r\n      (0): PLBartEncoderLayer(\r\n        (self_attn): PLBartAttention(\r\n          (k_proj): Linear(in_features=16, out_features=16, bias=True)\r\n          (v_proj): Linear(in_features=16, out_features=16, bias=True)\r\n          (q_proj): Linear(in_features=16, out_features=16, bias=True)\r\n          (out_proj): Linear(in_features=16, out_features=16, bias=True)\r\n        )\r\n        (self_attn_layer_norm): LayerNorm((16,), eps=1e-05, elementwise_affine=True)\r\n        (activation_fn): GELUActivation()\r\n        (fc1): Linear(in_features=16, out_features=4, bias=True)\r\n        (fc2): Linear(in_features=4, out_features=16, bias=True)\r\n        (final_layer_norm): LayerNorm((16,), eps=1e-05, elementwise_affine=True)\r\n      )\r\n      (1): PLBartEncoderLayer(\r\n        (self_attn): PLBartAttention(\r\n          (k_proj): Linear(in_features=16, out_features=16, bias=True)\r\n          (v_proj): Linear(in_features=16, out_features=16, bias=True)\r\n          (q_proj): Linear(in_features=16, out_features=16, bias=True)\r\n          (out_proj): Linear(in_features=16, out_features=16, bias=True)\r\n        )\r\n        (self_attn_layer_norm): LayerNorm((16,), eps=1e-05, elementwise_affine=True)\r\n        (activation_fn): GELUActivation()\r\n        (fc1): Linear(in_features=16, out_features=4, bias=True)\r\n        (fc2): Linear(in_features=4, out_features=16, bias=True)\r\n        (final_layer_norm): LayerNorm((16,), eps=1e-05, elementwise_affine=True)\r\n      )\r\n    )\r\n    (layernorm_embedding): LayerNorm((16,), eps=1e-05, elementwise_affine=True)\r\n  )\r\n  (decoder): PLBartDecoder(\r\n    (embed_tokens): Embedding(99, 16, padding_idx=1)\r\n    (embed_positions): PLBartLearnedPositionalEmbedding(102, 16)\r\n    (layers): ModuleList(\r\n      (0): PLBartDecoderLayer(\r\n        (self_attn): PLBartAttention(\r\n          (k_proj): Linear(in_features=16, out_features=16, bias=True)\r\n          (v_proj): Linear(in_features=16, out_features=16, bias=True)\r\n          (q_proj): Linear(in_features=16, out_features=16, bias=True)\r\n          (out_proj): Linear(in_features=16, out_features=16, bias=True)\r\n        )\r\n        (activation_fn): GELUActivation()\r\n        (self_attn_layer_norm): LayerNorm((16,), eps=1e-05, elementwise_affine=True)\r\n        (encoder_attn): PLBartAttention(\r\n          (k_proj): Linear(in_features=16, out_features=16, bias=True)\r\n          (v_proj): Linear(in_features=16, out_features=16, bias=True)\r\n          (q_proj): Linear(in_features=16, out_features=16, bias=True)\r\n          (out_proj): Linear(in_features=16, out_features=16, bias=True)\r\n        )\r\n        (encoder_attn_layer_norm): LayerNorm((16,), eps=1e-05, elementwise_affine=True)\r\n        (fc1): Linear(in_features=16, out_features=4, bias=True)\r\n        (fc2): Linear(in_features=4, out_features=16, bias=True)\r\n        (final_layer_norm): LayerNorm((16,), eps=1e-05, elementwise_affine=True)\r\n      )\r\n      (1): PLBartDecoderLayer(\r\n        (self_attn): PLBartAttention(\r\n          (k_proj): Linear(in_features=16, out_features=16, bias=True)\r\n          (v_proj): Linear(in_features=16, out_features=16, bias=True)\r\n          (q_proj): Linear(in_features=16, out_features=16, bias=True)\r\n          (out_proj): Linear(in_features=16, out_features=16, bias=True)\r\n        )\r\n        (activation_fn): GELUActivation()\r\n        (self_attn_layer_norm): LayerNorm((16,), eps=1e-05, elementwise_affine=True)\r\n        (encoder_attn): PLBartAttention(\r\n          (k_proj): Linear(in_features=16, out_features=16, bias=True)\r\n          (v_proj): Linear(in_features=16, out_features=16, bias=True)\r\n          (q_proj): Linear(in_features=16, out_features=16, bias=True)\r\n          (out_proj): Linear(in_features=16, out_features=16, bias=True)\r\n        )\r\n        (encoder_attn_layer_norm): LayerNorm((16,), eps=1e-05, elementwise_affine=True)\r\n        (fc1): Linear(in_features=16, out_features=4, bias=True)\r\n        (fc2): Linear(in_features=4, out_features=16, bias=True)\r\n        (final_layer_norm): LayerNorm((16,), eps=1e-05, elementwise_affine=True)\r\n      )\r\n    )\r\n    (layernorm_embedding): LayerNorm((16,), eps=1e-05, elementwise_affine=True)\r\n  )\r\n) \r\n```\r\nand `concrete_args` is:\r\n```\r\n{'head_mask': None, 'decoder_head_mask': None, 'cross_attn_head_mask': None, 'encoder_outputs': None, 'past_key_values': None, 'inputs_embeds': None, 'decoder_inputs_embeds': None, 'use_cache': None, 'output_attentions': None, 'output_hidden_states': None, 'return_dict': None}\r\n```", "createdAt": "2022-08-05T14:59:36Z", "author": "donebydan", "repo": "huggingface/transformers", "pr_number": 18486}
…
